models/7_37e_model.pth (torch, 7159 bytes, 6 tensors)

embedding.weight f4 [127, 3]
0.0 0.0 0.0 0.17099991 1.7211903 0.33517623 0.96616423 -1.0012534
-1.1362957 -0.24999487 -2.5534728 1.2454793 -0.88574404 -0.13543466 0.02886983 0.5728401
1.4372951 0.400975 -0.041957404 0.0027135597 0.20897044 1.4683857 1.5633199 1.5795177
1.2575608 -0.7720279 -0.73015714 -0.021671304 -0.067964524 -0.95842427 0.040201344 -0.71416193
0.700461 -0.6806476 2.0061076 -0.048658587 -0.9013418 -1.9252639 -1.7883471 -1.1238577
-0.74730265 -0.5941948 0.725458 -0.22214262 -0.97122645 0.6961934 0.35374206 0.077569835
0.60312694 -0.06869613 0.5441879 0.9640619 1.3059578 -0.53338677 -1.5246272 1.2895833
-0.58053917 0.23255228 0.78641367 -1.0939208 0.77376175 -0.7249237 0.15898275 -1.1497195
1.8143215 -0.6904035 0.05642827 0.5700197 -0.20376654 0.5866238 -0.97315514 -0.78411824
0.17270705 -0.7515836 0.6439501 -0.95174706 -0.13852508 1.7350612 0.58904636 0.8605727
-1.4869375 0.7046076 0.569311 0.5791104 0.53962356 -0.7860539 1.0997822 -0.36785945
-0.3988227 2.1775835 -2.0400755 2.798449 0.808021 2.770203 -0.750079 -2.311958
0.036452305 1.6733775 -0.23228307 0.718675 0.30391085 -1.4796398 -0.9453439 -0.14738402
0.74133915 -0.039317448 -0.36278126 -1.1138414 -0.9264306 -0.8432344 -0.09391653 -1.8347254
1.2822202 0.6943201 -0.35867923 -0.29491866 0.9840393 -2.2296658 -0.46034148 -1.1630532
-0.8395971 -0.15467213 1.1459706 1.5112319 -1.3756969 -0.12955238 -0.088876 -0.578491
-1.100566 -1.2052327 0.5847729 0.996118 -0.8090283 0.5128469 0.64844346 -0.91739786
0.017024502 -0.09404128 -0.3989247 -1.1356497 0.6428402 -1.5505912 -1.1223983 -0.8288833
-0.95784086 -0.42694896 -0.51442933 -0.16006255 2.0143077 -0.5920478 1.0265555 1.1202615
-0.70163494 0.31181276 1.0114261 0.6397312 -0.19126272 0.281799 0.514706 -0.5316934
-0.32616264 0.28306785 0.19090542 -0.3354001 -2.7750087 1.4082911 -0.28970706 -0.035537403
-0.85933715 1.1848415 -0.24201196 0.17269762 -0.25131646 0.09452427 -0.18885557 1.5287508
0.5526052 1.6220231 -0.76764524 0.82099885 0.8985515 -0.32719395 -0.6642354 0.48017243
1.2558757 0.97037244 -0.08571813 0.575855 1.8909839 0.48067278 -0.27190083 1.1805314
0.7910724 -1.36058 1.0605738 0.6642389 0.06395758 3.289859 0.986651 -0.3993183
-2.150964 -1.2522669 0.17497425 0.40836015 0.60876346 0.50294423 0.5925874 -0.036447156
2.2004988 -1.2894944 0.86369795 -0.2949207 -0.5928234 -0.75130266 0.15189646 -1.7879294
-1.5567116 1.7689859 -1.1270672 -0.5304027 1.3213187 -1.213033 0.6436188 -0.8838762
-0.4513514 -2.7835953 -1.0179657 1.2632974 0.5759007 -0.5084103 1.653613 0.48265788
-0.31561145 0.31540474 -1.056275 0.9711852 0.59563345 -0.32038668 -1.3293128 0.19729221
0.6177526 0.2044597 -1.6530415 -0.41181177 0.025070002 1.5636761 -0.7136922 0.31749794
-0.94780546 -0.47549078 -0.18744911 0.22908248 -2.3019075 1.0684067 0.6867111 -0.5773476
00000000: 0000 0000 0000 0000 0000 0000 9a1a 2f3e
00000010: f74f dc3f 389c ab3e 8a56 773f 1229 80bf
00000020: 2372 91bf a8fe 7fbe 196c 23c0 de6b 9f3f
00000030: 1fc0 62bf 62af 0abe 6c80 ec3c a6a5 123f
00000040: 49f9 b73f 984c cd3e 87db 2bbd fad5 313b
00000050: 59fc 553e 10f4 bb3f de1a c83f a32d ca3f
00000060: c1f7 a03f 9fa3 45bf 94eb 3abf 0588 b1bc
00000070: fc30 8bbd 4b5b 75bf 2aaa 243d 51d3 36bf
00000080: 6951 333f ec3e 2ebf 1164 0040 3a4e 47bd
00000090: 56be 66bf 0c6f f6bf 8fe8 e4bf 92da 8fbf
000000a0: 3a4f 3fbf 271d 18bf 9eb7 393f 5b79 63be
000000b0: 4ca2 78bf bb39 323f ae1d b53e efdc 9e3d
000000c0: 8766 1a3f 8eb0 8cbd e64f 0b3f c3cc 763f
000000d0: a029 a73f 098c 08bf fc26 c3bf 1111 a53f
000000e0: 379e 14bf 2f22 6e3e 6852 493f 9905 8cbf
000000f0: 4015 463f 9994 39bf 60cc 223e 022a 93bf
00000100: b03b e83f 49be 30bf 5421 673d d0ec 113f
00000110: 2da8 50be fa2c 163f b220 79bf f9bb 48bf
00000120: 1eda 303e c867 40bf ead9 243f b2a5 73bf
00000130: 85d9 0dbe 7c16 de3f becb 163f 7e4e 5c3f
00000140: f853 bebf 2a61 343f 5ebe 113f 9440 143f
00000150: c524 0a3f d43a 49bf aac5 8c3f 1358 bcbe
00000160: 7d32 ccbe 875d 0b40 9990 02c0 ca19 3340
00000170: 77da 4e3f 024b 3140 2d05 40bf 1ff7 13c0
00000180: 034f 153d 3c31 d63f 9ddb 6dbe 16fb 373f
00000190: 349a 9b3e d664 bdbf 0f02 72bf d6eb 16be
000001a0: 67c8 3d3f 550b 21bd 77be b9be 5b92 8ebf
000001b0: 8e2a 6dbf 36de 57bf 4f57 c0bd 48d8 eabf
000001c0: cb1f a43f f6be 313f cea4 b7be 94ff 96be
000001d0: 00ea 7b3f d8b2 0ec0 e1b1 ebbe edde 94bf
000001e0: d6ef 56bf 5f62 1ebe 2aaf 923f 0c70 c13f
000001f0: d616 b0bf 61a9 04be 9f04 b6bd fc17 14bf
00000200: 59df 8cbf 1145 9abf adb3 153f 9701 7f3f
00000210: 7b1c 4fbf ef49 033f 6400 263f 96da 6abf
00000220: f876 8b3c b798 c0bd dc3f ccbe f85c 91bf
00000230: 2d91 243f c679 c6bf bfaa 8fbf b231 54bf
00000240: 0f35 75bf 0e99 dabe a4b1 03bf 70e7 23be
00000250: 6bea 0040 7290 17bf 2c66 833f bb64 8f3f
00000260: 599e 33bf eca5 9f3e 6976 813f 6dc5 233f
00000270: 60da 43be f547 903e c6c3 033f 0f1d 08bf
00000280: cafe a6be 45ee 903e b67c 433e 90b9 abbe
00000290: be99 31c0 e242 b43f 7c54 94be ab8f 11bd
000002a0: 85fd 5bbf e3a8 973f fcd1 77be a5d7 303e
000002b0: 8dac 80be f195 c13d 5b63 41be 1bae c33f
000002c0: 8977 0d3f 749e cf3f 6684 44bf fb2c 523f
000002d0: 7907 663f f785 a7be 550b 2abf 29d9 f53e
000002e0: 89c0 a03f 546a 783f fd8c afbd 3c6b 133f
000002f0: c30b f23f be1a f63e 9636 8bbe a71b 973f
00000300: b983 4a3f 7c27 aebf e2c0 873f 900b 2a3f
00000310: 31fc 823d 0d8d 5240 2995 7c3f 7373 ccbe
00000320: 65a9 09c0 484a a0bf 732c 333e 9514 d13e
00000330: ecd7 1b3f f4c0 003f cfb3 173f 9d49 15bd
00000340: f9d4 0c40 270e a5bf 4f1b 5d3f d9ff 96be
00000350: 46c3 17bf 5f55 40bf bf8a 1b3e dfda e4bf
00000360: 5342 c7bf 216e e23f bd43 90bf 79c8 07bf
00000370: f920 a93f aa44 9bbf 34c4 243f b645 62bf
00000380: 8817 e7be 6d26 32c0 b34c 82bf bbb3 a13f
00000390: 3a6e 133f 2d27 02bf 97a9 d33f ef1e f73e
000003a0: d397 a1be bb7c a13e 0534 87bf 989f 783f
000003b0: 6f7b 183f b909 a4be ec26 aabf f806 4a3e
000003c0: 0925 1e3f e25d 513e dd96 d3bf fed8 d2be
000003d0: 9b5f cd3c 8a26 c83f 88b4 36bf 178f a23e
000003e0: 61a3 72bf 8773 f3be a9f2 3fbe 9994 6a3e
000003f0: 7452 13c0 8dc1 883f 4ccc 2f3f 0dcd 13bf

fc.0.weight f4 [32, 6]
0.420025 0.27616233 0.28174308 0.19916765 0.45912102 -0.2271065 0.22631922 -0.18768305
-0.21015756 0.07321508 -0.3704659 0.33711842 0.16766459 0.60171723 0.20223244 -0.29639938
0.21135786 -0.14080188 0.25970763 -0.283739 0.11540457 0.32251924 -0.26182655 -0.17016312
0.16254725 0.32308704 0.1187474 0.23778452 0.49259144 -0.09094214 -0.01017301 0.119448505
0.1099048 0.33825886 -0.37963855 0.11930422 -0.35779938 -0.10841096 0.60785383 0.41547474
0.17743067 -0.37681907 -0.31748 -0.42488736 0.462177 0.051207066 -0.32887843 -0.30649352
0.06979051 -0.262748 -0.19927196 0.2615348 -0.1577442 -0.41438892 -0.21173394 0.25963134
0.19258189 -0.43864033 0.050135497 -0.0906231 0.24855623 -0.15617947 -0.40407556 -0.046962358
-0.33885372 -0.015689552 0.114448346 -0.29027572 0.31188905 0.29879957 -0.437361 0.28099617
-0.14579505 -0.29027018 -0.5698975 0.103735365 0.14847505 0.091703445 0.067483805 -0.103001185
0.32932088 0.548679 -0.4551367 -0.108693704 0.16851625 0.6541911 0.36125958 0.21733409
0.045024905 0.13756283 -0.56539357 0.0638554 -0.35445517 0.08379949 -0.31586978 0.027895266
0.4225939 0.4515482 -0.30435017 0.23852396 -0.30095357 0.42094672 -0.44254756 0.2814988
0.061330523 -0.015466233 0.40616444 0.39193583 -0.18679081 0.39702046 0.33129948 -0.42862374
-0.05719146 -0.021308646 -0.11725372 0.19294895 0.44487458 -0.43334296 -0.11115888 -0.35614216
0.18399893 -0.11418118 0.0056150937 0.031797122 -0.36373693 -0.04847402 -0.29161116 -0.16936241
-0.05018233 0.0948854 0.05611294 0.41824442 0.47679082 0.36801964 -0.40507475 0.13446023
-0.23520647 0.017994825 -0.2517158 0.08345298 0.16440149 -0.35151523 -0.36811477 0.20242368
-0.28981644 0.1382476 -0.14107552 -0.4718687 0.03472166 0.48808023 0.23406295 -0.124570325
-0.25033623 0.26198816 -0.5394534 -0.3543169 0.23635358 -0.45508566 -0.19505724 0.28969496
0.24606605 0.2607875 -0.34894854 -0.33483818 0.33315656 -0.22354503 -0.41243112 -0.30783728
-0.08770644 -0.33114126 -0.38947797 0.07699346 -0.06904278 -0.19249515 -0.22308408 0.5351157
0.43810824 -0.17091039 -0.11478875 -0.43957523 -0.38201135 0.14108033 -0.042072177 -0.39226854
0.19174762 -0.38281918 0.102149084 0.20452967 0.5171489 -0.13242918 0.35426003 -0.25087133
00000000: 840d d73e 2665 8d3e a140 903e 9bf2 4b3e
00000010: e911 eb3e 9b8e 68be 3ac0 673e fc2f 40be
00000020: 8b33 57be caf1 953d b5ad bdbe c99a ac3e
00000030: 44b0 2b3e 240a 1a3f 0516 4f3e a9c1 97be
00000040: 326e 583e 5e2e 10be 66f8 843e 3d46 91be
00000050: 3b59 ec3d 3e21 a53e 210e 86be 3e3f 2ebe
00000060: c972 263e aa6b a53e d631 f33d c97d 733e
00000070: f234 fc3e df3f babd b2ac 26bc 6ba1 f43d
00000080: c515 e13d 4430 ad3e fc5f c2be c555 f43d
00000090: 7b31 b7be 9106 debd 4f9c 1b3f 1bb9 d43e
000000a0: 63b0 353e 6eee c0be bd8c a2be d68a d9be
000000b0: 77a2 ec3e 80be 513d c162 a8be b8ec 9cbe
000000c0: 54ee 8e3d e886 86be f30d 4cbe e4e7 853e
000000d0: b287 21be c92a d4be c8d0 58be 66ee 843e
000000e0: 3034 453e 7795 e0be e15a 4d3d 9b98 b9bd
000000f0: 8685 7e3e 83ed 1fbe fee2 cebe 9a5b 40bd
00000100: 3c7e adbe 6087 80bc e563 ea3d 059f 94be
00000110: ecaf 9f3e 42fc 983e c8ed dfbe bbde 8f3e
00000120: 4c4b 15be 4b9e 94be cde4 11bf 3573 d43d
00000130: d809 183e 04cf bb3d f334 8a3d 49f2 d2bd
00000140: bf9c a83e 3a76 0c3f ad07 e9be ce9a debd
00000150: 868f 2c3e 1179 273f 04f7 b83e d48c 5e3e
00000160: 096c 383d 45dd 0c3e a2bd 10bf 9fc6 823d
00000170: 267b b5be 119f ab3d afb9 a1be 9d84 e43c
00000180: 3a5e d83e 5331 e73e c9d3 9bbe a03f 743e
00000190: 9616 9abe 5486 d73e 9895 e2be 9c20 903e
000001a0: b735 7b3d 1566 7dbc c9f4 cf3e d0ab c83e
000001b0: 1746 3fbe 4446 cb3e 16a0 a93e 9274 dbbe
000001c0: 9841 6abd 788f aebc b822 f0bd 6994 453e
000001d0: 9ac6 e33e 21df ddbe 44a7 e3bd 4458 b6be
000001e0: 376a 3c3e d3d7 e9bd d2fe b73b b33d 023d
000001f0: ba3b babe b28c 46bd 0f4e 95be 576d 2dbe
00000200: fd8b 4dbd 4753 c23d afd6 653d 2224 d63e
00000210: ed1d f43e 126d bc3e f565 cfbe f1af 093e
00000220: f7d9 70be e269 933c e5e0 80be 65e9 aa3d
00000230: dd58 283e cef9 b3be 8a79 bcbe 2748 4f3e
00000240: d262 94be c790 0d3e 1a76 10be c698 f1be
00000250: 4d38 0e3d a7e5 f93e 33ae 6f3e ba1e ffbd
00000260: 122c 80be 5023 863e 9e19 0abf 0669 b5be
00000270: ac06 723e fd00 e9be 16bd 47be e652 943e
00000280: bdf8 7b3e f085 853e 62a9 b2be e96f abbe
00000290: 7f93 aa3e fde8 64be 2c2a d3be d99c 9dbe
000002a0: 6f9f b3bd 598b a9be a869 c7be bfae 9d3d
000002b0: 4d66 8dbd 731d 45be 2770 64be 58fd 083f
000002c0: b94f e03e 2203 2fbe 5d16 ebbd 0110 e1be
000002d0: fe96 c3be 5d77 103e e053 2cbd 6cd7 c8be
000002e0: 7d59 443e e000 c4be 8a33 d13d 3a70 513e
000002f0: df63 043f 849b 07be 9261 b53e 3572 80be

fc.0.bias f4 [32]
0.31113672 0.23855864 0.17637646 -0.071002506 0.22268745 0.39762568 -0.13419321 0.14742073
-0.27437344 -0.32070917 -0.4133124 0.043297295 -0.1746931 -0.2764482 0.12677208 -0.009638306
-0.02979404 0.022746574 0.24598975 0.33773443 -0.33792016 0.34231642 -0.26499328 0.13850366
0.34358993 0.17086866 0.2730248 0.40608093 0.42361102 0.09204042 -0.23331879 -0.010928608
00000000: 504d 9f3e b748 743e 089c 343e c369 91bd
00000010: 2e08 643e 9895 cb3e f269 09be 76f5 163e
00000020: ad7a 8cbe fe33 a4be af9d d3be 8158 313d
00000030: bfe2 32be 9e8a 8dbe 8ad0 013e fce9 1dbc
00000040: a112 f4bc 0657 ba3c bde4 7b3e 87eb ac3e
00000050: df03 adbe 1944 af3e 33ad 87be e7d3 0d3e
00000060: 05eb af3e 32f8 2e3e e8c9 8b3e d7e9 cf3e
00000070: 8be3 d83e b07f bc3d 1feb 6ebe e70d 33bc

fc.3.weight f4 [16, 32]
0.14964683 -0.03820922 -0.066744626 -0.07605528 0.010832501 -0.0842191 0.073446244 0.11876662
-0.11175433 0.11156153 -0.14490286 -0.14609621 -0.29504475 -0.15599713 -0.19109833 0.17133956
0.018319657 0.11338641 -0.60725373 -0.1814043 0.034768887 0.11744884 0.055612363 -0.30184555
-0.34438083 0.12379893 -0.09685055 0.054803163 0.12467786 -0.07494846 -0.067628846 -0.19784701
0.15013808 -0.035119392 -0.04464745 0.054710444 0.2627955 0.20867433 0.14191191 0.16435681
0.07475541 0.13211651 0.21579754 0.14682885 -0.09652661 -0.08841069 -0.079480074 -0.1473213
0.07419033 0.267845 -0.1398093 0.11654577 0.6060594 0.17863037 -0.36188945 0.0353913
-0.18097775 -0.08018629 -0.12590134 0.11943839 -0.09156731 -0.07131181 -0.056222986 0.08594142
0.1468103 0.029172778 -0.14709309 -0.059685666 0.09326816 -0.18064949 0.18315668 0.023632709
0.105097875 -0.19898632 -0.12761515 -0.20067555 -0.19086069 0.0017446032 0.1785984 -0.34241822
0.17139362 0.10596423 -0.45673433 -0.23904228 -0.23580854 -0.07441892 0.11573061 -0.34061688
0.10638743 -0.0891692 0.25715488 -0.058057174 0.03987633 -0.23864183 -0.24428174 0.08777768
0.094538584 0.12622409 0.04127835 0.066202104 0.039461885 -0.023045275 0.16539787 -0.1568246
0.023487618 0.062474683 -0.10968558 -0.2129721 -0.034198098 0.016908856 -0.015875267 0.1499956
0.0011047388 0.06416777 -0.07078649 -0.2085985 0.1148297 -0.02865716 -0.14923872 0.09286615
0.015783155 -0.15128052 -0.19669919 -0.14871468 0.08522809 0.15547723 -0.026016522 -0.045436367
-0.17176524 -0.029407285 0.22783765 -0.16217075 -0.14925233 0.21625648 0.029782543 0.104827985
-0.029365154 0.28854954 0.14331104 0.10096015 0.040507104 0.27669084 0.2847285 -0.25821626
0.4118866 -0.24541225 0.20686035 0.025379332 -0.35109395 0.099913485 0.23836346 0.07661428
0.077561125 -0.005854177 -0.032631543 0.07989521 0.09746226 0.125534 0.033937518 -0.029051505
-0.10424374 -0.05199637 0.23408207 0.09750219 -0.114557594 0.008664789 -0.0335394 0.0314838
0.09578459 0.34020066 0.26978272 0.20571955 0.17151889 0.25606644 0.27024326 -0.26473692
0.33694252 -0.11059501 0.2484605 -0.07637309 -0.12052667 -0.060363114 0.40013593 0.20617627
0.02359349 0.108203575 0.074850455 0.15920095 0.13438961 0.10369764 -0.1709471 -0.09970304
-0.03603835 0.14980333 0.07023362 0.12105415 -0.064995505 -0.045692332 0.09825831 0.15237406
0.17491868 -0.15392928 -0.00096612115 -0.12962356 -0.43243557 -0.023721054 -0.2385626 0.036519498
-0.047550358 0.0147911245 0.04713649 0.19646797 0.5342981 -0.1864143 -0.045730233 -0.05347226
-0.14214261 -0.098735616 0.14458095 0.21162483 -0.08278003 -0.030617336 0.12954825 -0.1728359
-0.1144642 -0.23653612 0.023812355 -0.081361525 -0.15613376 0.0695895 0.061582755 0.105318636
0.14907338 -0.17224541 -0.014383175 -0.15654574 -0.18611392 -0.18335982 0.11368875 0.11115743
0.16022323 0.104391456 0.044619877 0.061425928 0.031937577 0.04252092 0.09230104 -0.11202898
-0.01653858 -0.26168093 0.09604629 0.1285349 -0.13411964 -0.31720373 -0.25346917 0.15277544
00000000: 053d 193e 4581 1cbd 68b1 88bd dfc2 9bbd
00000010: cd7a 313c 107b acbd fc6a 963d ea3b f33d
00000020: 74df e4bd 5f7a e43d 6a61 14be 3f9a 15be
00000030: 1b10 97be b6bd 1fbe 48af 43be a373 2f3e
00000040: 1b13 963c 2237 e83d fb74 1bbf 0cc2 39be
00000050: d269 0e3d 0489 f03d cac9 633d 808b 9abe
00000060: af52 b0be 4b8a fd3d 9559 c6bd 4879 603d
00000070: 1b57 ff3d 947e 99bd fe80 8abd 6898 4abe
00000080: ccbd 193e 5ad9 0fbd 3fe0 36bd 0f18 603d
00000090: 228d 863e b9ae 553e 5b51 113e 274d 283e
000000a0: 5d19 993d 8d49 073e 08fa 5c3e 4d5a 163e
000000b0: beaf c5bd aa10 b5bd 73c6 a2bd 65db 16be
000000c0: 1af1 973d fb22 893e 2b2a 0fbe 8caf ee3d
000000d0: b526 1b3f e1ea 363e 9349 b9be 78f6 103d
000000e0: 3b52 39be b638 a4bd 48ec 00be 1d9c f43d
000000f0: a487 bbbd ed0b 92bd 134a 66bd 0e02 b03d
00000100: 7055 163e c0fb ee3c 929f 16be f578 74bd
00000110: 6103 bf3d 2efc 38be 6d8d 3b3e 6299 c13c
00000120: 8e3d d73d 12c3 4bbe 8cad 02be e47d 4dbe
00000130: fc70 43be 2bab e43a 80e2 363e 7151 afbe
00000140: cf81 2f3e c603 d93d 15d9 e9be 80c7 74be
00000150: cb77 71be f268 98bd 2c04 ed3d 5665 aebe
00000160: a7e1 d93d 579e b6bd cea9 833e 5ccd 6dbd
00000170: 5d55 233d 865e 74be fe24 7abe c9c4 b33d
00000180: 729d c13d e340 013e 7d13 293d f894 873d
00000190: c9a2 213d 72c9 bcbc 0f5e 293e a196 20be
000001a0: 1b69 c03c 74e5 7f3d d5a2 e0bd 5c15 5abe
000001b0: 4e13 0cbd 7184 8a3c d90c 82bc 7298 193e
000001c0: e2cc 903a 646a 833d 82f8 90bd d89a 55be
000001d0: d52b eb3d 6cc2 eabc 09d2 18be 9c30 be3d
000001e0: ad4b 813c 48e9 1abe 836b 49be a948 18be
000001f0: 118c ae3d 6c35 1f3e 9a20 d5bc 7c1b 3abd
00000200: 3ae3 2fbe 8ce7 f0bc 464e 693e 1710 26be
00000210: 9ad5 18be 5772 5d3e 85fa f33c 0eb0 d63d
00000220: 318f f0bc c4bc 933e 21c0 123e 32c4 ce3d
00000230: c7ea 253d 6caa 8d3e efc7 913e ec34 84be
00000240: cde2 d23e 594d 7bbe 33d3 533e 51e8 cf3c
00000250: 96c2 b3be 719f cc3d 8d15 743e f3e7 9c3d
00000260: 5ed8 9e3d 65d4 bfbb a7a8 05bd 1aa0 a33d
00000270: 4b9a c73d fc8b 003e 1102 0b3d 6cfd edbc
00000280: be7d d5bd 25fa 54bd 36b3 6f3e 3aaf c73d
00000290: 2c9d eabd c2f6 0d3c 9c60 09bd 28f5 003d
000002a0: b62a c43d c82e ae3e f620 8a3e 25a8 523e
000002b0: a6a2 2f3e 241b 833e 535d 8a3e 998b 87be
000002c0: bb83 ac3e a37f e2bd 6e6c 7e3e 7f69 9cbd
000002d0: b0d6 f6bd 503f 77bd 9ede cc3e df1f 533e
000002e0: 2247 c13c d699 dd3d 324b 993d 9305 233e
000002f0: 6e9d 093e 6e5f d43d c20c 2fbe 1c31 ccbd
00000300: f39c 13bd 0b66 193e a5d6 8f3d 3deb f73d
00000310: 5d1c 85bd e227 3bbd a73b c93d f207 1c3e
00000320: e21d 333e a39f 1dbe 4b43 7dba 0abc 04be
00000330: 3268 ddbe a852 c2bc c149 74be 7895 153d
00000340: 2ac4 42bd 7956 723c 3112 413d e62e 493e
00000350: c3c7 083f 64e3 3ebe a04f 3bbd ba05 5bbd
00000360: d58d 11be e635 cabd 070d 143e 2eb4 583e
00000370: 9488 a9bd 35d1 fabc 4ca8 043e e5fb 30be
00000380: 356c eabd 8636 72be 2112 c33c dfa0 a6bd
00000390: 87e1 1fbe f184 8e3d 333e 7c3d 4cb1 d73d
000003a0: b1a6 183e 1a61 30be 69a7 6bbc 874d 20be
000003b0: a694 3ebe adc2 3bbe a6d5 e83d 82a6 e33d
000003c0: 8f11 243e 30cb d53d 55c3 363d c199 7b3d
000003d0: fad0 023d 6b2a 2e3d 5408 bd3d 736f e5bd
000003e0: eb7b 87bc 0bfb 85be ebb3 c43d a79e 033e
000003f0: a956 09be 8768 a2be b6c6 81be 2a71 1c3e

fc.3.bias f4 [16]
0.12312276 -0.13047099 -0.12386917 -0.11122644 0.13271703 0.014681855 0.0826596 0.0920332
-0.14147274 -0.121775016 0.109825864 -0.12846386 0.13993199 0.007768394 -0.022551304 -0.10966891
00000000: c927 fc3d 309a 05be 1faf fdbd b0ca e3bd
00000010: f9e6 073e 2a8c 703c 7049 a93d e77b bc3d
00000020: 3bde 10be 2e65 f9bd 62ec e03d 088c 03be
00000030: 554a 0f3e 038e fe3b 83bd b8bc 189a e0bd

fc.6.weight f4 [1, 16]
-0.37877908 -0.2601051 -0.45884243 -0.15185031 0.24645817 0.15094687 -0.30481246 -0.23810205
-0.30287448 -0.23442647 0.15691613 -0.47719437 -0.5242046 0.693008 0.1091663 -0.21064322
00000000: 55ef c1be 7f2c 85be 65ed eabe a67e 1bbe
00000010: 885f 7c3e d191 1a3e 6110 9cbe 06d1 73be
00000020: 5d12 9bbe 7e0d 70be 9fae 203e d252 f4be
00000030: 4632 06bf f968 313f 9592 df3d dbb2 57be
